second_stage/to_pmb_sem_tagging/stsb/checkpoint-best/pmb_sem_tagging/pytorch_model_head.bin (torch, 244161 bytes, 2 tensors)

heads.pmb_sem_tagging.1.weight f4 [79, 768]
00000000: 29d6 853c d56d d6bc a556 493d 6dd2 7ebd
00000010: 86e0 763d 83d2 913c 09fd 10bd 92ce 15bc
00000020: d365 7d3c 6dab 623c a077 eebc aa64 863d
00000030: 0687 99bc 989f 31bd 6c9f 803b 1cca da3c
00000040: 2694 663d 1796 3cbd 24ff 85bc 36e7 7bbd
00000050: e57c 1c3d 636e 713d 90ef df3c 34a3 6fbc
00000060: 1098 4ebd 328b a2bd e32c 3cbd 4563 903c
00000070: c6a2 8c3c 597a 5d3d 7680 82bd ce0f 0c3c
00000080: d7cf 9fbc 197c 09bd e750 31bc 80ca 0f3c
00000090: 50f7 95bc ea19 eabc 244c 643b e651 09bd
000000a0: 0ef6 96bd 39fe 5fbd 5f21 05bd 5cb3 a43c
000000b0: 5222 a3bd 16ab 573b 151a 9cbd 9202 fc3b
000000c0: 383b 8d3d 3412 c23b bda1 3d3c fdcf bcbd
000000d0: 9de6 61bd beeb d23c ab79 263b 4900 483c
000000e0: 8f23 98bd 75b1 d8bc 1c3e 123c 5c2e 353c
000000f0: 1f4f b0bb 8534 68bd 0c52 2b3c 714d 893d
00000100: 3d54 d93c 1160 753b 16b2 463c 4eb4 50bc
00000110: 0771 6b3d 9d28 633d 1b7d eabb acc8 2fbc
00000120: e253 82bd 2ca3 843c b499 92bc fc21 8d3d
00000130: cafd 9fbd 7e9f a03b 5b3a 143d 0cc1 5a3d
00000140: c70b 6dbd 878e 4b3d e1f0 0abd d9b1 2dbc
00000150: 1de2 3dbd 75d9 b2bc 0fa9 23bd 9409 9c3b
00000160: 6fbe 983c 31ad 3b3c 741b 563d 3959 c3bc
00000170: ade4 823d 267b 853d 58bd 99bc b27b 92bc
00000180: dc41 25bc 0f12 3c3d a3d5 4bbc c0d4 9dbd
00000190: 8987 81bc 7dc4 773a 5135 16bc 80b6 8abd
000001a0: 6b40 c63c ba97 82bd 988c 8fbd d4c4 f13c
000001b0: 6b6d a03c 0710 1dbd 86bf b1bd 9626 9bbd
000001c0: 97ef 47bd 7bf7 f2bc bd13 713d fbaa 023c
000001d0: 60ff a3bc 661f 0ebc e35a 333d 9f6f 263d
000001e0: cf15 203d 0d7c 05bd 1273 e9bc 713f 69bd
000001f0: 5dae 63bc ff80 933b 7ae8 f63c 366d 21bd
00000200: 33d4 393d 3aa8 f13c 9005 5c3b 49ce 183d
00000210: b591 51bd 3295 82bd 7c97 95bd 895f 4fbd
00000220: ffe2 82b8 34da 6d3d 9d8a 50bd bf65 09bd
00000230: bbd7 a23b e482 0cbd faff 0a3d cbb4 863d
00000240: 95af 32bd f648 213d 1024 4c3d a4a7 833d
00000250: 3c94 1bbc 5558 7ebc 5804 693c 44a1 553c
00000260: b408 ed3c 20e5 bdbc fabc 0cbd 4f38 963c
00000270: 13c7 7c3d 621a 283d a8c6 7e3b 6681 10bc
00000280: 1dab 193b 8f1c 12bb 500e 67bd e150 d83c
00000290: 2a8d 67bc 2f8b 473d 7a8a 05bd 643a 2bbd
000002a0: 87fa 28bd c7c0 d3bc 4f10 2e3d 0d42 de3c
000002b0: 2ba2 6abd 36a9 2d3d eeae 863d 01dd 673d
000002c0: a4ab 2b3d f37d a6bb bcd8 0d3e 2b22 a7bd
000002d0: cc56 d73c bfef 27bd 82e0 ca3c c59b 4a3d
000002e0: 45e4 1ebd 28d1 db3d 06af 8dbd 7e9a efbc
000002f0: dc5b 76bc a69e 8ebd 654a 30bd 1748 c6bc
00000300: aa54 99bc 616b f3bc a97c eb3c 86fb 5e3d
00000310: 68b2 843d 4f10 dabc 9e6f 50bb 271d 86bc
00000320: 311d 91bd 67a6 3d3d b1a3 8bbd 1713 a8bd
00000330: 7066 11bb 3e93 953a c695 4cbd 8da3 bdbb
00000340: ecf1 98bc 8dbe 0e3b 0bc2 1dbd e8cf da3c
00000350: bdfd 0dbd 28a4 f63b 8b8f 1c3a 2532 92bc
00000360: a012 993c f2cf 3b3a 4e28 a23c a44d 6ebd
00000370: 5a71 ecbc fb8e 2f3c b0c9 223c 2501 14bd
00000380: 700f 1fbb 81e3 c33c 26bd b0bc 620d 783d
00000390: dddc 0fbd 2967 0d3d bc7a fabb df3a c6bd
000003a0: fa6c abb9 3ed4 08be 204a e63c 2c56 0dbd
000003b0: c79d a23c 4dbf 31bd 4e7d 373c 53c9 b83c
000003c0: ea03 39bd c853 b53c f50c 8d3c e8d3 a73c
000003d0: 7fe2 693d 629c a5bc 9c7c b3bd d3e7 0e3d
000003e0: e6a4 5e3c 4641 d3bc 8c39 163d 29ba 2c3d
000003f0: 1f15 3a3d 3a97 593d 9dbf 273d 8aff 9c3a
0.016337471 -0.026175419 0.049154896 -0.062212396 0.060272716 0.017800575 -0.035397563 -0.0091434885
0.015466171 0.013834816 -0.029109776 0.06562169 -0.018741142 -0.04336509 0.0039252546 0.026707701
0.05629363 -0.046041574 -0.016357012 -0.061499797 0.038205046 0.058943164 0.027335912 -0.014626313
-0.050437987 -0.07936706 -0.045941245 0.01762546 0.01716746 0.054071758 -0.06372158 0.00854869
-0.019508285 -0.033565614 -0.010822511 0.008776307 -0.018306404 -0.02857681 0.0034835422 -0.03352537
-0.0737115 -0.054685805 -0.03250253 0.020105056 -0.079655305 0.0032908372 -0.07622162 0.007690736
0.06896061 0.00592258 0.011574206 -0.09219358 -0.05515157 0.025747176 0.002540211 0.012207099
-0.07428657 -0.026451806 0.008925941 0.011058416 -0.0053805257 -0.05669071 0.010456573 0.06704224
0.026529426 0.0037441293 0.01212742 -0.0127383005 0.05748084 0.055458654 -0.007156027 -0.010728996
-0.063636556 0.016191088 -0.017895557 0.06891248 -0.07812078 0.0049018255 0.036188465 0.05340676
-0.05787256 0.04969647 -0.033921126 -0.010601484 -0.046358217 -0.021832207 -0.03995615 0.004761884
0.018645493 0.011454866 0.052272275 -0.023846256 0.06391273 0.06517629 -0.018767044 -0.017881248
-0.010086503 0.04591566 -0.012441072 -0.077065945 -0.015811699 0.0009451581 -0.009167985 -0.0677309
0.024200639 -0.06376596 -0.07009238 0.0295128 0.019583425 -0.038345363 -0.08679108 -0.07575719
-0.048812475 -0.029659024 0.058856715 0.007975335 -0.020019233 -0.008674478 0.04378785 0.040633794
0.0390833 -0.032589007 -0.028497253 -0.056945268 -0.013896552 0.0045014615 0.03014015 -0.039410792
0.045368385 0.029499162 0.0033572651 0.037306104 -0.051164348 -0.06376113 -0.07304284 -0.05062822
-6.2411644e-05 0.058069423 -0.050913442 -0.0335443 0.0049695647 -0.034304515 0.033935525 0.06577452
-0.04362448 0.03937622 0.04983908 0.06428459 -0.009495791 -0.01552399 0.014222227 0.013038937
0.028934814 -0.023180544 -0.03435991 0.018337397 0.06171329 0.041040786 0.0038875733 -0.0088199135
0.0023447939 -0.0022294854 -0.056410134 0.026405754 -0.014132777 0.04871672 -0.032602765 -0.041803733
-0.041254546 -0.02584876 0.04249602 0.027131105 -0.05728356 0.0423977 0.06576334 0.05660725
0.041911736 -0.0050809323 0.13852209 -0.08160814 0.026286505 -0.041000124 0.024765257 0.04946496
-0.038791914 0.10733253 -0.06918149 -0.029248472 -0.015036549 -0.069638535 -0.0430397 -0.024204297
-0.018717129 -0.029714288 0.028745966 0.05443909 0.06479341 -0.026619105 -0.003180481 -0.016371323
-0.07085646 0.04630127 -0.06818331 -0.08206766 -0.0022186302 0.001141168 -0.049947523 -0.005787319
-0.018670045 0.0021781058 -0.038515132 0.026710466 -0.03466581 0.007526893 0.00059723173 -0.017846176
0.018685639 0.000716447 0.01979461 -0.058179513 -0.028862644 0.010715242 0.009935781 -0.036133904
-0.0024270676 0.023912193 -0.021574568 0.060559638 -0.03512274 0.03452221 -0.0076440256 -0.096791975
-0.00032696855 -0.13362214 0.028111517 -0.034506008 0.019850625 -0.04339533 0.011199309 0.022556936
-0.04516975 0.022134677 0.017218092 0.020486787 0.05710077 -0.02021617 -0.08764002 0.034889054
0.01358912 -0.02578796 0.036675975 0.042169724 0.0454303 0.053122737 0.04095422 0.0011978012

heads.pmb_sem_tagging.1.bias f4 [79]
00000000: 08ab c6bc 470f f93c a64e a2bc 1d21 81bc
00000010: 6caf c7bc ab24 85bc e14d cabc 6f54 07bd
00000020: f85b d0bc 8743 0e3d 3388 0bbc 167b 06bd
00000030: a38f 5fbd 3dcc dcbb e5e4 febc d293 2cbc
00000040: fe98 73bc 037b cdbc eafe 6cbc 278a 51bd
00000050: 0a6b 0fbe 849b 07bd 1403 7ebc 6bb6 b0bb
00000060: 8d31 d9bb 3323 87bb 0af4 a1bd 638b 89bc
00000070: df31 bc3c 62cc 3bbc 3618 80bb dfe1 f83a
00000080: e120 56bb 88a3 afbc 9396 19bd d48e 0fbd
00000090: e374 dcbc b657 03bb f2c6 25bd 9119 32bd
000000a0: 5413 61bc bc31 093d bcf2 cdbc 0de8 08bd
000000b0: 25b9 ffbc ab33 a7bb f33e f9bc 09aa 90bd
000000c0: aafe 8ebc 07d4 c13c 4e97 d9bb 85e4 063c
000000d0: e508 eabc d11f dbbc bea1 9fbb 7164 bc3b
000000e0: 7953 fbbc 431d b1bc 6732 19bd 51c1 38bd
000000f0: 2b43 02bc 489f 5fbc 7a49 353c 2abe 093b
00000100: 477d 51bb 2804 98bc 918d c6bc 874f 9539
00000110: ac1b 7cbc e53e 02bd cf3b 22bd 6b25 1b3c
00000120: 2507 68bc 057d 7dbd 9c58 55bc cd8a 703b
00000130: bd1e 9cbc ccb5 0ebd b0a2 e6bc
-0.024251476 0.030402793 -0.019812893 -0.01576286 -0.02437564 -0.016252836 -0.024695339 -0.033039507
-0.02543448 0.034732368 -0.008516359 -0.032832228 -0.054580342 -0.0067382143 -0.031115005 -0.01053329
-0.014868019 -0.02508307 -0.014465073 -0.051157143 -0.14005676 -0.033107296 -0.015503664 -0.0053928397
-0.0066282214 -0.004124069 -0.07907875 -0.016790098 0.022973 -0.011462303 -0.003909136 0.0018988213
-0.0032673406 -0.021440282 -0.037497114 -0.03504832 -0.026911205 -0.0020041293 -0.040472932 -0.043481413
-0.013737518 0.033494696 -0.025140159 -0.033424426 -0.031216213 -0.005102595 -0.030425524 -0.07063682
-0.017455418 0.023660673 -0.0066403514 0.008233194 -0.028568694 -0.02674857 -0.004871576 0.0057492782
-0.030679451 -0.021620398 -0.037401583 -0.045106236 -0.007950584 -0.013648815 0.011064881 0.0021017888
-0.003196554 -0.01855667 -0.024237426 0.00028478747 -0.015387457 -0.031798262 -0.03960782 0.00946937
-0.01416186 -0.061886806 -0.013021614 0.0036703825 -0.019057626 -0.034841344 -0.028153747
